save/edge/best_edge.pth (torch, 17307 bytes, 12 tensors)

fc.0.weight f4 [8, 3, 3, 3, 3]
0.10131296 -0.33523792 0.066872045 -0.005918367 -0.05028667 0.24341835 -0.099843085 0.08853797
0.3332822 0.15713842 -0.10293499 0.35137165 0.060860883 -0.37144834 0.1714633 0.059332572
-0.059739124 0.26224047 -0.07048026 -0.41556716 0.02882553 -0.2669808 -0.2663115 0.10298853
-0.06526189 -0.22736005 0.08593091 0.05337624 0.2596152 0.13125141 -0.024628017 -0.071904406
0.18965931 0.018979713 -0.11325023 0.26402986 0.027506249 -0.082480475 -0.225002 0.06599769
-0.31629536 0.19622359 0.0019730155 -0.12024821 -0.13610889 0.112517126 0.07944032 -0.09304134
0.24320018 -0.15057325 0.20211709 -0.08867886 0.17277545 -0.11143586 -0.19570553 -0.1322842
-0.09141568 0.04404092 -0.16491546 -0.1346448 -0.21702059 0.018520366 0.099253066 0.15630734
-0.04263441 -0.16789852 -0.021597095 -0.37313744 -0.18894567 -0.0918443 -0.114711985 -0.18017523
0.49386033 0.2840133 -0.010927209 -0.08866272 0.1162407 0.012147794 -0.012092334 0.3287221
-0.2009748 -0.17269605 -0.08987229 -0.3287926 -0.17169611 0.068818085 -0.007464346 -0.06323159
0.051155683 0.04290411 -0.10863178 -0.2540669 0.12012934 0.13252543 0.108664714 0.20233038
0.08223511 0.298847 0.10019262 0.10628764 0.13954839 -0.19902657 -0.05730962 0.00981232
0.05097128 0.18580937 0.24156764 -0.09622006 -0.22978473 -0.25542662 -0.13100402 -0.17181316
-0.082801856 -0.23707817 -0.22510667 0.05760784 -0.03727599 -0.004518401 -0.04688789 -0.23078716
-0.16067316 0.007350842 -0.058443353 -0.029530033 -0.086642176 -0.18731883 -0.036580447 0.21212952
-0.05670973 -0.009427445 0.10493511 -0.012287478 0.024505228 0.09704019 -0.039209466 -0.0692131
-0.07303532 0.3256833 0.05630302 0.35838294 0.03434223 0.25537997 -0.06179503 -0.09413632
0.024367727 0.3320799 0.1818774 -0.028816042 0.040097255 0.020772614 -0.14934665 0.18601674
-0.0030839625 0.2464388 0.20629825 -0.045003213 -0.13599999 0.032443296 0.22903137 -0.012510375
-0.16663058 0.056395885 -0.12311043 0.04246978 -0.00732678 -0.29702973 -0.2383299 -0.045591976
0.18583888 0.03237699 -0.031197386 0.17308877 -0.038280793 -0.036648534 0.1711492 -0.07894944
0.028490076 -0.07699465 0.16049828 0.14333822 0.122554615 0.16635723 0.068471864 -0.1855131
-0.2932896 -0.30397505 -0.02114434 0.124869 -0.18524322 0.020096818 0.20975499 0.12828824
0.021482637 -0.05841938 0.18171535 -0.05959081 0.010227886 0.40663108 0.24928685 -0.16043715
-0.06135778 0.09607901 0.26732185 -0.054218713 0.03615377 0.0054047434 0.023694476 0.23512745
0.0313135 -0.2688517 0.25237998 0.28779024 0.09109776 0.14321336 -0.011231301 0.3116491
-0.0053229304 -0.11182677 -0.24760865 -0.08989191 -0.1054163 -0.06950191 -0.021104818 -0.23791544
0.046911284 -0.042232897 0.053691093 -0.046161816 -0.052608743 -0.050245896 0.24217911 -0.029133735
-0.31475246 -0.10364002 -0.056477048 -0.32884747 -0.2757157 -0.15511824 -0.16015635 -0.06889249
-0.23696807 0.07901757 -0.14409794 -0.09810352 0.2504771 0.19110772 -0.107837364 0.081994645
0.1464565 0.04180807 -0.06450849 0.14523143 0.13404115 -0.30176553 0.27732927 -0.082498245
00000000: 2b7d cf3d 4ea4 abbe 36f4 883d dcee c1bb
00000010: 65f9 4dbd a942 793e 887a ccbd 6553 b53d
00000020: f7a3 aa3e e5e8 203e 94cf d2bd fce6 b33e
00000030: 4349 793d 7a2e bebe 1394 2f3e b606 733d
00000040: 03b1 74bd 6244 863e f457 90bd 38c5 d4be
00000050: 8523 ec3c b5b1 88be fb59 88be a7eb d23d
00000060: 07a8 85bd 13d1 68be 8cfc af3d 0ba1 5a3d
00000070: 49ec 843e c566 063e b2c0 c9bc 9e42 93bd
00000080: 0d36 423e 587b 9b3c bdef e7bd ec2e 873e
00000090: c954 e13c 86eb a8bd ed66 66be cc29 873d
000000a0: 77f1 a1be d6ee 483e b54d 013b b244 f6bd
000000b0: 2160 0bbe 616f e63d 9bb1 a23d 758c bebd
000000c0: 7809 793e e02f 1abe c8f7 4e3e 439d b5bd
000000d0: 0cec 303e 7c38 e4bd 0867 48be 8275 07be
000000e0: 2538 bbbd 4064 343d 99df 28be 54e0 09be
000000f0: a53a 5ebe 06b8 973c 3145 cb3d 080f 203e
00000100: 6ba1 2ebd 97ed 2bbe 64ec b0bc df0b bfbe
00000110: f97a 41be dd18 bcbd 1eee eabd db7f 38be
00000120: 43db fc3e 316a 913e 0908 33bc cd94 b5bd
00000130: 9b0f ee3d 8a07 473c ed1e 46bc 434e a83e
00000140: 57cc 4dbe 3cd7 30be f70e b8bd 8157 a8be
00000150: 1bd1 2fbe 7ff0 8c3d 7997 f4bb 907f 81bd
00000160: 9f88 513d 38bc 2f3d 577a debd 0f15 82be
00000170: 5f06 f63d bfb4 073e 9b8b de3d b22f 4f3e
00000180: e26a a83d 7902 993e ca31 cd3d 56ad d93d
00000190: c6e5 0e3e 9fcd 4bbe 7ebd 6abd dac3 203c
000001a0: 43c7 503d d044 3e3e 825d 773e 060f c5bd
000001b0: b04c 6bbe 47c7 82be eb25 06be caef 2fbe
000001c0: 0594 a9bd 9fc4 72be 5d82 66be 33f6 6b3d
000001d0: b5ae 18bd 180f 94bb 840d 40bd 7853 6cbe
000001e0: 8187 24be 55df f03b 4c62 6fbd f8e8 f1bc
000001f0: 7471 b1bd 82d0 3fbe 61d5 15bd 7b38 593e
00000200: 7648 68bd 9275 1abc 38e8 d63d 6b51 49bc
00000210: 30bf c83c 02bd c63d 1b9a 20bd 99bf 8dbd
00000220: 8b93 95bd f6bf a63e ff9d 663d f87d b73e
00000230: 70aa 0c3d 2ac1 823e c91c 7dbd 8bca c0bd
00000240: d49e c73c 6006 aa3e 123e 3a3e 9f0f ecbc
00000250: 053d 243d 542b aa3c 54ee 18be 2c7b 3e3e
00000260: 4e1c 4abb 745a 7c3e d93f 533e 4a55 38bd
00000270: 9543 0bbe 43e3 043d 3387 6a3e 51f8 4cbc
00000280: 35a1 2abe 5fff 663d 5221 fcbd cbf4 2d3d
00000290: 7c15 f0bb 4814 98be c10c 74be a7be 3abd
000002a0: 8c4c 3e3e bc9d 043d a991 ffbc 2f3e 313e
000002b0: 52cc 1cbd c61c 16bd bc41 2f3e 3eb0 a1bd
000002c0: 0564 e93c 5faf 9dbd a959 243e 41c7 123e
000002d0: eafd fa3d 8d59 2a3e fa3a 8c3d 25f7 3dbe
000002e0: 0e2a 96be 9ea2 9bbe e536 adbc 51bb ff3d
000002f0: 66b0 3dbe 15a2 a43c 03ca 563e fe5d 033e
00000300: 5bfc af3c 2949 6fbd 9713 3a3e 7e15 74bd
00000310: dd92 273c f331 d03e 0d45 7f3e a349 24be
00000320: 4c52 7bbd 12c5 c43d 69de 883e 7114 5ebd
00000330: fa15 143d 461a b13b eb1a c23c 40c5 703e
00000340: 9642 003d eea6 89be f337 813e 3e59 933e
00000350: 7691 ba3d 86a6 123e 7e03 38bc 7990 9f3e
00000360: fa6b aebb 6f05 e5bd 1f8d 7dbe 4019 b8bd
00000370: 80e4 d7bd 0457 8ebd 03e4 acbc 1ba0 73be
00000380: 0c26 403d 67fc 2cbd 31eb 5b3d 2c14 3dbd
00000390: 447c 57bd a4ce 4dbd cdfd 773e dfa9 eebc
000003a0: 3c27 a1be 3841 d4bd 7a54 67bd b25e a8be
000003b0: 9c2a 8dbe 51d7 1ebe 0700 24be 8117 8dbd
000003c0: c2a7 72be f7d3 a13d 698e 13be 80ea c8bd
000003d0: 893e 803e beb1 433e d6d9 dcbd cfec a73d
000003e0: b1f8 153e f03e 2b3d 071d 84bd 8cb7 143e
000003f0: 1542 093e 0381 9abe 1afe 8d3e d7f4 a8bd

fc.0.bias f4 [8]
-0.021165978 0.014646343 0.03095459 -2.0070887e-05 0.0074394634 0.018814495 0.03838317 -0.012209098
00000000: 4664 adbc 37f7 6f3c 7b94 fd3c e75d a8b7
00000010: bec6 f33b db20 9a3c ac37 1d3d ab08 48bc

fc.1.weight f4 [2, 8, 3, 3, 3]
-0.043565586 0.041971054 0.005428641 -0.035134885 0.32136226 0.26404452 -0.0880535 0.22920051
0.1947178 -0.05012171 -0.024534496 0.12981188 -0.19578224 -0.0844963 -0.03026468 -0.07709239
0.07996318 -0.108178414 -0.111827284 -0.11048655 0.011846438 -0.13052312 -0.017989194 -0.1429945
-0.045802485 -0.06166111 -0.12931678 -0.19988604 -0.19505434 -0.18032582 -0.055648725 0.034579866
-0.14361593 -0.029764418 0.005948924 -0.021640517 -0.19017784 -0.2859717 -0.088672996 -0.0063447477
-0.020930983 -0.10115264 -0.009124447 0.21324193 0.06005061 0.031506397 0.010112435 -0.07488071
0.029924713 -0.027219662 0.1499341 0.098747775 0.22619015 0.06765383 -0.13000995 -0.022511972
0.0050811484 0.093723 0.21960671 -0.0062400713 0.0005598261 0.07645785 0.13005258 -0.0013787925
0.049812097 0.0122436695 0.0016707473 -0.05796154 0.041762177 0.054713346 0.054834783 -0.056576677
-0.036577918 -0.07611595 -0.075343266 0.13279267 0.104126714 -0.010582991 0.13185462 0.1402482
0.16230005 -0.03504329 0.06785565 0.0007892859 -0.051881824 -0.06952369 -0.1813491 0.0214129
-0.03683213 0.109760515 0.00087044196 0.056805708 0.14125021 0.0100781415 -0.005568101 0.085679404
-0.027663566 0.02182162 0.01756947 0.029713355 0.06771429 -0.032206953 0.03631243 0.12923117
0.10542802 -0.1318918 -0.12048016 -0.030295664 0.07100893 -0.07559268 0.029191751 0.0058486923
0.11511478 -0.017280782 0.05813185 0.056226097 -0.048433192 -0.14855361 -0.08499626 0.015411241
-0.09459638 0.08421811 -0.019696534 0.19742881 -0.015087338 0.034389067 -0.010702097 -0.14319701
0.057081744 0.067373335 0.034456804 -0.065454505 -0.042361025 0.06440636 -0.25041083 -0.15957797
0.08467378 0.0074152607 -0.011738014 0.045280907 0.016495429 -0.0906083 0.07353066 -0.079359956
-0.28707474 -0.10226538 0.16757315 -0.01575006 -0.0040006503 0.2516995 -0.07906685 -0.19058001
0.09500234 0.10343211 -0.032148972 -0.028451592 0.02957657 -0.010101728 0.030031512 0.10530193
-0.19212241 0.048193134 0.08357599 -0.0021644644 0.012250597 -0.038103495 -0.030416341 0.10602272
0.02280519 -0.07631999 -0.17431615 -0.16787577 -0.14842807 -0.031840764 -0.023887947 0.014442223
0.1275894 0.089169785 -0.0059315586 0.11049006 -0.120181955 0.006995168 0.10770365 0.069071956
0.05583282 0.19225532 -0.01469809 0.07987372 -0.07624118 -0.11377138 0.18759373 0.011418057
0.09426191 -0.07559164 -0.026911572 -0.005150737 0.064131044 0.035803556 0.031063532 -0.11602062
-0.117961854 -0.11104702 -0.17157242 -0.17499712 -0.00013675743 -0.026698433 -0.12340128 -0.040314384
0.029511007 -0.08119626 -0.08926078 0.112962164 -0.19659439 -0.065725386 -0.077845074 -0.0015368155
-0.031905577 -0.16227308 -0.211486 0.056468006 -0.18545647 -0.30442095 -0.07940589 -0.22080143
-0.3364993 0.14258575 0.17688413 -0.04020448 0.2596027 -0.01869068 -0.0048743426 0.3928081
-0.09032538 -0.1375483 0.24929866 -0.0029832544 -0.059246115 0.2440038 0.21842176 -0.018835207
0.20794465 0.06852981 -0.048573654 0.14061753 -0.019894913 0.14233461 0.07766542 0.03738584
0.09721055 -0.16767351 -0.08227266 -0.06805102 0.19787045 0.13730752 0.01715814 0.05184396
00000000: d471 32bd d7e9 2b3d bee2 b13b 99e9 0fbd
00000010: 9889 a43e d830 873e 6555 b4bd 8ab3 6a3e
00000020: 1a64 473e 6c4c 4dbd 91fc c8bc 68ed 043e
00000030: 247b 48be 650c adbd a2ed f7bc 9de2 9dbd
00000040: bcc3 a33d a58c ddbd b405 e5bd c646 e2bd
00000050: 9017 423c daa7 05be 135e 93bc 266d 12be
00000060: 639b 3bbd 5c90 7cbd 9e6b 04be edae 4cbe
00000070: 53bc 47be 55a7 38be ebef 63bd 9ea3 0d3d
00000080: 0e10 13be 82d4 f3bc 31ef c23b 7447 b1bc
00000090: fbbd 42be e26a 92be 309a b5bd 9ae7 cfbb
000000a0: 7477 abbc 1e29 cfbd b47e 15bc 185c 5a3e
000000b0: a1f7 753d da0c 013d a0ae 253c 0f5b 99bd
000000c0: ac24 f53c c5fb debc 5388 193e 463c ca3d
000000d0: 649e 673e 178e 8a3d 5421 05be 076b b8bc
000000e0: c37f a63b d8f1 bf3d 95e0 603e 8379 ccbb
000000f0: 4bc1 123a ef95 9c3d 812c 053e 99b8 b4ba
00000100: c507 4c3d ac99 483c fafc da3a 1469 6dbd
00000110: d10e 2b3d 1a1b 603d 709a 603d f2bc 67bd
00000120: bad2 15bd aee2 9bbd 924d 9abd cdfa 073e
00000130: 6340 d53d 4864 2dbc e604 073e 399d 0f3e
00000140: fc31 263e 8e89 0fbd e7f7 8a3d 15e8 4e3a
00000150: 0982 54bd 7062 8ebd 94b3 39be 1b6a af3c
00000160: 4add 16bd 1fca e03d 5f2e 643a 1aad 683d
00000170: e5a3 103e ca1e 253c 9e74 b6bb af78 af3d
00000180: b49e e2bc 41c3 b23c d9ed 8f3c 6c69 f33c
00000190: caad 8a3d 70eb 03bd 58bc 143d 2d55 043e
000001a0: a5ea d73d a50e 07be 4dbe f6bd 9d2e f8bc
000001b0: 216d 913d 56d0 9abd 8a23 ef3c 63a6 bf3b
000001c0: 4cc1 eb3d 6d90 8dbc aa1b 6e3d 564d 663d
000001d0: e261 46bd 701e 18be 8512 aebd 6e7f 7c3c
000001e0: bfbb c1bd 8b7a ac3d a05a a1bc c72a 4a3e
000001f0: e230 77bc 8ddb 0c3d d957 2fbc 3da2 12be
00000200: 8cce 693d 08fb 893d 9422 0d3d 030d 86bd
00000210: c182 2dbd 7be7 833d d935 80be 6868 23be
00000220: 7269 ad3d b7fb f23b cd50 40bc 7978 393d
00000230: 6c21 873c d890 b9bd 3e97 963d 7987 a2bd
00000240: 76fb 92be 8370 d1bd 4c98 2b3e 4506 81bc
00000250: e317 83bb c2de 803e cded a1bd 6827 43be
00000260: 9690 c23d 37d4 d33d a4ae 03bd 5013 e9bc
00000270: 904a f23c b881 25bc a504 f63c 8aa8 d73d
00000280: bdbb 44be 2a66 453d e329 ab3d b0d9 0dbb
00000290: bab6 483c 6912 1cbd b12b f9bc 7122 d93d
000002a0: f3d1 ba3c a84d 9cbd ef7f 32be a0e7 2bbe
000002b0: 87fd 17be 766b 02bd a8b0 c3bc 139f 6c3c
000002c0: cca6 023e a69e b63d 855d c2bb 9d48 e23d
000002d0: f521 f6bd b937 e53b bb93 dc3d 9975 8d3d
000002e0: f4b0 643d 94de 443e 42d0 70bc d594 a33d
000002f0: 5624 9cbd f800 e9bd 9218 403e cd12 3b3c
00000300: 630c c13d cacf 9abd a875 dcbc 83c7 a8bb
00000310: 2357 833d c0a6 123d f378 fe3c 389c edbd
00000320: fc95 f1bd 9f6c e3bd aeb0 2fbe 7232 33be
00000330: 8b66 0fb9 acb6 dabc cfb9 fcbd b220 25bd
00000340: 11c1 f13c 3a4a a6bd 5bce b6bd b558 e73d
00000350: 0a50 49be 089b 86bd 3d6d 9fbd f96e c9ba
00000360: 6caf 02bd ea2a 26be c98f 58be ff4a 673d
00000370: 4de8 3dbe 10dd 9bbe 8e9f a2bd c519 62be
00000380: a349 acbe 0002 123e 1d21 353e 74ad 24bd
00000390: a5ea 843e 321d 99bc f3b8 9fbb 251e c93e
000003a0: 83fc b8bd 76d9 0cbe 2648 7f3e b482 43bb
000003b0: 0eac 72bd 22dc 793e f4a9 5f3e 4b4c 9abc
000003c0: 71ef 543e 5b59 8c3d 2bf5 46bd 0bfe 0f3e
000003d0: a8fa a2bc 2ac0 113e 0c0f 9f3d e521 193d
000003e0: 5316 c73d 9bb2 2bbe 927e a8bd 555e 8bbd
000003f0: 8d9e 4a3e 589a 0c3e 3a8f 8c3c 555a 543d

fc.1.bias f4 [2]
0.06635297 -0.06635616
00000000: 11e4 873d bde5 87bd

exp_avg f4 [8, 3, 3, 3, 3]
0.0005709494 0.00062934525 0.0005451096 0.00057227095 0.0006892828 0.00062557135 0.00053120946 0.00066179887
0.0006056527 0.00045933152 0.0005765486 0.0005792295 0.00045885617 0.0006141109 0.00063231593 0.0004619239
0.000606374 0.000614931 0.00030983504 0.00046665338 0.00054471585 0.0003122466 0.0004885786 0.00055975333
0.00034575985 0.0004955822 0.0005356309 -0.00034031208 -0.00052073825 -0.0001731609 -0.00036301155 -0.00050144916
-4.2551426e-05 -0.00043833064 -0.0005269085 -3.386817e-05 -0.00016265955 -0.0005549651 -0.0003574414 -0.00022356877
-0.00058910705 -0.00027018072 -0.00039725998 -0.0006823895 -0.000297845 -8.524619e-05 -0.0005661089 -0.00051417865
-0.00013127683 -0.0006215258 -0.000489995 -0.00031303606 -0.00072267844 -0.0005170017 0.00090370205 0.00096506934
0.0007485171 0.0009793572 0.0009980728 0.0006778071 0.0010270311 0.0009994404 0.0006391699 0.0006398647
0.0009005027 0.0008418495 0.00074941566 0.0009825191 0.00081022334 0.00089438405 0.0010507955 0.00080692687
0.00041350359 0.00075656123 0.0008460786 0.00049854256 0.000850018 0.0008678034 0.00065514975 0.0009297944
0.00086745626 0.0006712777 0.0005961779 0.0005438345 0.00081103074 0.0006944628 0.00057236955 0.0009479243
0.0007999832 0.0006117303 0.0007608317 0.00066338386 0.00057968637 0.0008798999 0.0007511136 0.0005918024
0.0009855725 0.00083739124 0.0006229719 0.0007679831 0.0006700093 0.0005827081 0.0008376393 0.0007192047
0.00056178204 0.000900779 0.00076838536 0.00056565006 0.0008653131 0.0009465834 0.0010179789 0.0009132432
0.001055521 0.0011550081 0.0006824472 0.00084398466 0.00096381526 0.0009164467 0.0010128813 0.0010943741
0.0010145272 0.0011778417 0.0013061693 0.0007691265 0.0009584524 0.0011396693 0.0008460563 0.0009272389
0.0009967614 0.00096219516 0.001104137 0.0012364228 0.0007130635 0.00088468066 0.0010916975 0.00048309835
0.00039855312 0.00030650996 0.0005840857 0.00043993423 0.00031083368 0.0008093643 0.0006479806 0.0004953868
0.00059926143 0.0005016398 0.00039529652 0.0006579096 0.0004948578 0.00033251138 0.00089440617 0.00070739276
0.00048896926 0.0006558094 0.00057293504 0.0004784856 0.0006916694 0.0005493456 0.00038308155 0.0009305822
0.00076055963 0.0005164503 -0.0015010785 -0.0013321145 -0.0010777472 -0.0016093423 -0.0014585501 -0.0011884645
-0.0015338723 -0.0014108743 -0.0011793384 -0.0015290126 -0.0013734321 -0.0011168729 -0.0016323088 -0.0014984595
-0.0012322492 -0.0015648081 -0.001455704 -0.0012343014 -0.0014335946 -0.001303537 -0.0010781824 -0.0015350751
-0.0014216416 -0.0011854104 -0.0014997188 -0.0014060696 -0.0012088348 -0.0012378525 -0.0016251416 -0.0018007893
-0.001308902 -0.0017083965 -0.0018859389 -0.0011945522 -0.00156072 -0.0017118829 -0.0012079757 -0.0015872834
-0.0017818827 -0.0012594379 -0.0016606072 -0.0018725903 -0.0011068934 -0.0014825348 -0.0016718493 -0.0011795951
-0.0015158576 -0.0016734786 -0.0012126568 -0.0015728818 -0.001755429 -0.0010234879 -0.001367619 -0.0015348681
-0.0014595668 -0.0011908514 -0.00089825946 -0.001574543 -0.0012975249 -0.0009954767 -0.0015795797 -0.0013281063
-0.0010578707 -0.0015688682 -0.0013151487 -0.0010010435 -0.0017069364 -0.0014353597 -0.0010962561 -0.0017433144
-0.0014893389 -0.001178362 -0.0015361564 -0.0013214626 -0.0010495781 -0.001688395 -0.001453676 -0.0011493141
-0.001763137 -0.0015366009 -0.0012529625 -4.4730532e-05 -2.1401116e-05 -7.790807e-06 -9.507903e-05 -6.445741e-05
-3.0055062e-05 -0.00012347243 -0.00010420808 -5.8855596e-05 -3.8652357e-05 -2.3390465e-05 -1.6023754e-05 -7.27999e-05
00000000: c4ab 153a a5fa 243a b0e5 0e3a 7404 163a
00000010: fcb0 343a 62fd 233a dd40 0b3a 927c 2d3a
00000020: aac4 1e3a 6fd2 f039 8623 173a 6fd7 173a
00000030: a292 f039 49fc 203a 01c2 253a 602e f239
00000040: 12f5 1e3a 5233 213a 5b71 a239 28a9 f439
00000050: 43cb 0e3a 07b5 a339 f413 003a 69bc 123a
00000060: 1a47 b539 f5e9 013a 9569 0c3a ea6b b2b9
00000070: 2782 08ba 8692 35b9 9652 beb9 af73 03ba
00000080: 3f79 32b8 becf e5b9 3b20 0aba ac0d 0eb8
00000090: 978f 2ab9 147b 11ba f966 bbb9 c96d 6ab9
000000a0: 4e6e 1aba 0ba7 8db9 5547 d0b9 62e2 32ba
000000b0: 1428 9cb9 33c6 b2b8 ed66 14ba f2c9 06ba
000000c0: 5ba7 09b9 e4ed 22ba 0273 00ba fd1e a4b9
000000d0: 2172 3dba 6687 07ba 6be6 6c3a b5fc 7c3a
000000e0: 2238 443a c65d 803a c4d1 823a ddae 313a
000000f0: 729d 863a a8ff 823a f78d 273a 98bc 273a
00000100: b70f 6c3a 90af 5c3a 6f74 443a dfc7 803a
00000110: 2b65 543a 1975 6a3a d9ba 893a f287 533a
00000120: 83cb d839 f753 463a 60cb 5d3a a0b0 023a
00000130: bed3 5e3a 4d7d 633a 5bbe 2b3a 72bd 733a
00000140: 0166 633a aff8 2f3a d248 1c3a 1e90 0e3a
00000150: 5a9b 543a 9c0c 363a 120b 163a 1f7e 783a
00000160: f7b5 513a 875c 203a 8d72 473a f0e6 2d3a
00000170: 18f6 173a 15a9 663a 61e6 443a 3023 1b3a
00000180: 532e 813a 6084 5b3a f04e 233a 7952 493a
00000190: 90a3 2f3a e1c0 183a 0695 5b3a 0389 3c3a
000001a0: 8e44 133a 4122 6c3a 786d 493a 2248 143a
000001b0: 2ed6 623a 2324 783a b46d 853a b766 6f3a
000001c0: 6859 8a3a a463 973a 42e6 323a da3e 5d3a
000001d0: 8ca8 7c3a b23d 703a a8c2 843a 1a71 8f3a
000001e0: e2f9 843a cf61 9a3a c533 ab3a 359f 493a
000001f0: a740 7b3a f560 953a e1c9 5d3a f311 733a
00000200: c3a5 823a d33b 7c3a b1b8 903a 770f a23a
00000210: e2ec 3a3a eae9 673a 4a17 8f3a 5d48 fd39
00000220: e5f4 d039 12b3 a039 541d 193a f9a6 e639
00000230: 64f7 a239 852b 543a 3edd 293a d8dc 013a
00000240: c117 1d3a 7a80 033a cd3f cf39 9177 2c3a
00000250: 58b9 013a ec54 ae39 9576 6a3a 5370 393a
00000260: 2c2e 003a a0ea 2b3a 0531 163a 40dd fa39
00000270: 2651 353a f601 103a 56d8 c839 50f2 733a
00000280: 4b60 473a 6562 073a d6bf c4ba 589a aeba
00000290: 3243 8dba 91f0 d2ba d22c bfba 40c6 9bba
000002a0: 370c c9ba 16ed b8ba 0894 9aba 2669 c8ba
000002b0: bc04 b4ba 0964 92ba 32f3 d5ba f567 c4ba
000002c0: 6c83 a1ba 3f1a cdba 52cd beba 48c8 a1ba
000002d0: 74e7 bbba 72db aaba cc51 8dba 9334 c9ba
000002e0: 6056 baba c65f 9bba 3692 c4ba de4b b8ba
000002f0: c471 9eba 703f a2ba b402 d5ba 7608 ecba
00000300: 778f abba 46ec dfba 9c31 f7ba 8592 9cba
00000310: 1391 ccba 4261 e0ba f054 9eba 650c d0ba
00000320: 108e e9ba b913 a5ba bba8 d9ba b471 f5ba
00000330: 2e15 91ba 9d51 c2ba f421 dbba a59c 9aba
00000340: beaf c6ba a058 dbba 03f2 9eba 2829 ceba
00000350: 6c16 e6ba 8e26 86ba ae41 b3ba a12d c9ba
00000360: ef4e bfba 5816 9cba 2c79 6bba e560 ceba
00000370: b611 aaba a87a 82ba e609 cfba da13 aeba
00000380: 40a8 8aba 7ba2 cdba 1161 acba 7235 83ba
00000390: 48bb dfba ae22 bcba 40b0 8fba ed7f e4ba
000003a0: ec35 c3ba 4573 9aba db58 c9ba ed34 adba
000003b0: ff91 89ba 234d ddba 4689 beba 95a4 96ba
000003c0: 1019 e7ba c567 c9ba 723a a4ba 0b9d 3bb8
000003d0: 8c86 b3b7 43b5 02b7 2a65 c7b8 4f2d 87b8
000003e0: c11e fcb7 6178 01b9 498a dab8 b7db 76b8
000003f0: a71e 22b8 a436 c4b7 c06a 86b7 26ac 98b8

exp_avg_sq f4 [8, 3, 3, 3, 3]
9.356969e-07 7.0295573e-07 5.151196e-07 9.138689e-07 6.7786397e-07 5.186535e-07 7.8916855e-07 6.021868e-07
4.981566e-07 1.0281357e-06 9.358597e-07 7.274039e-07 1.0853963e-06 9.491154e-07 7.11971e-07 9.891118e-07
8.320883e-07 6.3318544e-07 9.356099e-07 9.888577e-07 8.8099125e-07 1.0449883e-06 1.0710683e-06 9.028922e-07
1.0263345e-06 9.96074e-07 8.1709953e-07 5.073086e-06 5.8498285e-06 4.0587465e-06 5.508361e-06 5.988103e-06
3.734439e-06 5.035928e-06 5.1996662e-06 3.2404366e-06 5.9610175e-06 7.779435e-06 6.26086e-06 6.6172975e-06
8.310733e-06 6.172589e-06 6.033449e-06 7.1124955e-06 5.152086e-06 4.761237e-06 6.8748222e-06 6.318002e-06
5.216447e-06 7.4119766e-06 6.424215e-06 4.8864867e-06 6.4803867e-06 5.408919e-06 5.6749986e-06 5.869965e-06
4.028262e-06 5.9661324e-06 5.786605e-06 3.524945e-06 5.353926e-06 4.8502666e-06 2.8800011e-06 5.6867066e-06
7.395694e-06 6.397735e-06 6.432845e-06 7.9457195e-06 6.2833537e-06 6.10091e-06 6.914448e-06 5.2529e-06
3.6077613e-06 5.7750112e-06 6.208684e-06 4.2593824e-06 6.52303e-06 6.5160416e-06 4.456378e-06 6.115058e-06
5.796598e-06 2.7330404e-06 2.67483e-06 2.683069e-06 2.8267737e-06 2.7794902e-06 2.8043028e-06 3.1097684e-06
3.1213633e-06 3.1559623e-06 2.7431618e-06 2.6324408e-06 2.5713475e-06 2.7970962e-06 2.6802065e-06 2.6330292e-06
2.987837e-06 2.9200867e-06 2.90378e-06 2.708789e-06 2.5575255e-06 2.449257e-06 2.7145957e-06 2.5514264e-06
2.4694712e-06 2.8375698e-06 2.7154842e-06 2.6792015e-06 9.583931e-06 9.503086e-06 9.287615e-06 9.680283e-06
9.379435e-06 9.083186e-06 8.168492e-06 7.70396e-06 7.660272e-06 8.777548e-06 8.800207e-06 8.851424e-06
8.747326e-06 8.49495e-06 8.507103e-06 7.228891e-06 6.7454084e-06 6.996827e-06 8.397777e-06 8.363826e-06
8.509372e-06 8.551704e-06 8.213772e-06 8.222319e-06 7.337963e-06 6.712306e-06 6.796903e-06 7.611953e-06
7.712015e-06 7.5542257e-06 7.766446e-06 7.995295e-06 8.0084355e-06 7.894017e-06 8.319746e-06 8.770323e-06
8.150607e-06 8.096389e-06 7.653984e-06 7.9752235e-06 7.925233e-06 7.65663e-06 7.712606e-06 7.718935e-06
7.933419e-06 8.01017e-06 7.800877e-06 7.258846e-06 7.580916e-06 7.336362e-06 7.0259257e-06 7.295806e-06
7.083674e-06 7.1894506e-06 6.494725e-06 6.325525e-06 6.283262e-06 6.842436e-06 6.7841315e-06 6.785646e-06
7.0690285e-06 7.091524e-06 7.112629e-06 6.3899643e-06 6.1579553e-06 6.0442703e-06 6.6765397e-06 6.542745e-06
6.4766714e-06 6.8550657e-06 6.800281e-06 6.764425e-06 6.2906847e-06 6.048288e-06 5.9198464e-06 6.54822e-06
6.380755e-06 6.2966437e-06 6.723453e-06 6.622649e-06 6.5665145e-06 1.7345024e-05 1.642912e-05 1.6215065e-05
1.6644843e-05 1.5899408e-05 1.5842217e-05 1.659367e-05 1.6261163e-05 1.6364016e-05 1.7472103e-05 1.6201635e-05
1.5777647e-05 1.6771155e-05 1.5693016e-05 1.5448817e-05 1.6696165e-05 1.6165903e-05 1.6164584e-05 1.8614493e-05
1.7150749e-05 1.626148e-05 1.7876482e-05 1.656927e-05 1.5828391e-05 1.7504224e-05 1.671035e-05 1.6297561e-05
1.4972567e-05 1.48244635e-05 1.5500276e-05 1.4974188e-05 1.509189e-05 1.6217426e-05 1.4963661e-05 1.531726e-05
1.6566524e-05 1.5078853e-05 1.4784215e-05 1.5195745e-05 1.50930355e-05 1.4945547e-05 1.5740352e-05 1.50984915e-05
1.51547665e-05 1.607797e-05 1.5255874e-05 1.5147994e-05 1.5559674e-05 1.5425809e-05 1.5421654e-05 1.6133594e-05
1.5541944e-05 1.5688209e-05 1.6491827e-05 1.0987742e-08 1.2852106e-08 1.4229862e-08 1.2837885e-08 1.3485911e-08
1.2776792e-08 1.2870165e-08 1.2731239e-08 1.1961258e-08 9.355509e-09 1.1025621e-08 1.3004694e-08 1.1562953e-08
00000000: 9a2c 7b35 c0b2 3c35 c046 0a35 9850 7535
00000010: 75f6 3535 9939 0b35 40d7 5335 f6a5 2135
00000020: 10b9 0535 79fe 8935 ca37 7b35 d142 4335
00000030: efad 9135 b7c6 7e35 461e 3f35 9fc1 8435
00000040: ac5c 5f35 2cf8 2935 9f26 7b35 e4b8 8435
00000050: 427d 6c35 8641 8c35 a0c1 8f35 485e 7235
00000060: 96c0 8935 d8b0 8535 a756 5b35 7a39 aa36
00000070: a549 c436 5e30 8836 76d4 b836 6aed c836
00000080: 2c9d 7a36 4bfa a836 cb78 ae36 4776 5936
00000090: c004 c836 6b84 0237 6114 d236 270a de36
000000a0: 546e 0b37 231e cf36 ef72 ca36 dfa7 ee36
000000b0: 15e0 ac36 b7c2 9f36 46ae e636 39ff d336
000000c0: f008 af36 65b4 f836 968f d736 9af6 a336
000000d0: 1972 d936 437e b536 de6b be36 9ef6 c436
000000e0: 822a 8736 b030 c836 8f2a c236 188e 6c36
000000f0: e0a5 b336 79bf a236 0b46 4136 70d0 be36
00000100: 8728 f836 20ac d636 b8d9 d736 9b4e 0537
00000110: 99d5 d236 6bb6 cc36 a802 e836 1142 b036
00000120: de1c 7236 f8c6 c136 3154 d036 d1eb 8e36
00000130: 67e0 da36 5fa4 da36 ff87 9536 f32f cd36
00000140: 6680 c236 4769 3736 3b81 3336 c60e 3436
00000150: 9ab3 3d36 4787 3a36 8e31 3c36 6ab1 5036
00000160: 9d78 5136 05cb 5336 2917 3836 fda8 3036
00000170: 6a8f 2c36 bfb5 3b36 99dd 3336 19b3 3036
00000180: a682 4836 b5f6 4336 8fde 4236 a4c8 3536
00000190: f4a1 2b36 ea5d 2436 662c 3636 2c39 2b36
000001a0: 31b9 2536 146d 3e36 aa3b 3636 55cc 3336
000001b0: acca 2037 726f 1f37 01d2 1b37 8068 2237
000001c0: 5e5c 1d37 fd63 1837 680b 0937 4240 0137
000001d0: 9e84 0037 4843 1337 9aa4 1337 9480 1437
000001e0: 7bc1 1237 8885 0e37 bbb9 0e37 b38f f236
000001f0: 9e56 e236 49c6 ea36 2de4 0c37 5c52 0c37
00000200: 79c3 0e37 4a79 0f37 e2cd 0937 97f2 0937
00000210: 9f38 f636 453a e136 f410 e436 2e6a ff36
00000220: da62 0137 4e7a fd36 a24c 0237 8823 0637
00000230: f85b 0637 8b70 0437 0995 0b37 4024 1337
00000240: 97be 0837 bad5 0737 9c69 0037 53cd 0537
00000250: 9ef6 0437 fa74 0037 6465 0137 9380 0137
00000260: c619 0537 6b63 0637 83e0 0237 0391 f336
00000270: 935f fe36 df2a f636 3ec0 eb36 7fce f436
00000280: 4cb0 ed36 e93c f136 43ed d936 d93f d436
00000290: cfd4 d236 1498 e536 3fa3 e336 41b0 e336
000002a0: 7e32 ed36 baf3 ed36 05a9 ee36 6069 d636
000002b0: 6fa0 ce36 e3cf ca36 0a07 e036 c089 db36
000002c0: 2f52 d936 9104 e636 f82d e436 f8f9 e236
000002d0: 9214 d336 66f2 ca36 18a3 c636 c8b8 db36
000002e0: 451a d636 c247 d336 069a e136 1f38 de36
000002f0: ee55 dc36 2880 9137 44d1 8937 9605 8837
00000300: 87a0 8b37 b85f 8537 e7e4 8437 a332 8b37
00000310: 9568 8837 7545 8937 0e91 9237 bfe8 8737
00000320: 3d5a 8437 c8af 8c37 7fa4 8337 1598 8137
00000330: be0e 8c37 039c 8737 2e99 8737 5226 9c37
00000340: f4de 8f37 4369 8837 74f5 9537 3dfe 8a37
00000350: 36c7 8437 09d6 9237 342d 8c37 bfb6 8837
00000360: b032 7b37 96b6 7837 9706 8237 a639 7b37
00000370: 2d33 7d37 a80a 8837 6f0c 7b37 917d 8037
00000380: 57f8 8a37 2efb 7c37 b809 7837 3af1 7e37
00000390: 1838 7d37 a3be 7a37 260a 8437 874f 7d37
000003a0: 3a41 7e37 2ddf 8637 7bf3 7f37 2424 7e37
000003b0: 2586 8237 ac66 8137 c05d 8137 a156 8737
000003c0: 1260 8237 2c9a 8337 ee57 8a37 9ac4 3c32
000003d0: 29cc 5c32 9877 7432 9e8d 5c32 aaaf 6732
000003e0: ed80 5b32 961b 5d32 95b8 5a32 2b7e 4d32
000003f0: f7b9 2032 326b 3d32 406b 5f32 68a6 4632

exp_avg f4 [8]
0.00039342628 0.0016727078 -0.0030959584 -0.00013517181 -0.00033518323 3.069628e-05 -0.0013619107 0.003163927
00000000: c844 ce39 c33e db3a 90e5 4abb e8bc 0db9
00000010: 88bb afb9 e1bf 0038 2482 b2ba e359 4f3b

exp_avg_sq f4 [8]
2.8427469e-06 2.6329504e-05 6.0374074e-05 6.5149706e-08 7.1301605e-07 3.7682645e-07 1.6047596e-05 6.1725776e-05
00000000: 05c6 3e36 2ede dc37 2b3a 7d38 6ee8 8b33
00000010: 1766 3f35 a24e ca34 f39d 8637 c672 8138

exp_avg f4 [2, 8, 3, 3, 3]
0.0004380686 0.00034030312 4.9490274e-05 0.00048968766 0.0004393713 0.00019121505 0.00050784496 0.000480507
0.00028203984 0.000546411 0.00042533845 8.497388e-05 0.00060683093 0.00048764428 0.00017099347 0.0006536035
0.0005307032 0.00025898017 0.0005152071 0.00043665819 9.754125e-05 0.0005881731 0.00047240022 0.000115797404
0.0006852959 0.0005304684 0.00019592958 -0.00030446504 0.0002753259 0.00082715246 -0.00031519664 0.0002681706
0.0007698278 -0.00029611393 0.00021585141 0.0006038215 -0.00041426247 0.00018364462 0.0008237004 -0.00042250715
0.00021300402 0.0008289307 -0.00044220372 0.00014717955 0.00066696835 -0.00041585686 6.349287e-05 0.00064295344
-0.00048528097 5.87906e-05 0.00066173094 -0.0006296376 -8.653941e-05 0.0004653866 0.00076017715 -4.2339965e-05
-0.0007640392 0.00088337436 5.7846017e-05 -0.00068815565 0.000976667 0.00020805644 -0.000459428 0.0008117514
2.153788e-05 -0.00069361646 0.0009948008 0.00015777157 -0.00060770346 0.0011719574 0.0003724392 -0.00032301052
0.0007885469 0.00011420149 -0.00050466566 0.0009856641 0.0002474432 -0.00043709428 0.0012352219 0.00050366536
-0.00012557452 9.8256314e-05 -0.00036576306 -0.00074007834 0.000100329285 -0.0003689519 -0.0007176053 8.803788e-05
-0.00031776377 -0.000595686 0.00024885384 -0.00021621364 -0.00064516516 0.00024990275 -0.0002448363 -0.00066625705
0.00027384007 -0.00018149859 -0.0005402871 0.00021478259 -0.00017302236 -0.0005421393 0.00023276235 -0.00020576772
-0.0005945801 0.00034813368 -8.737304e-05 -0.00044978515 -0.00010305597 -7.8347926e-05 8.275512e-06 -0.0001458656
-8.312725e-05 3.0771967e-05 -0.00012521478 -8.5064916e-05 -2.315818e-06 -0.00012990415 -0.00014291548 -8.94383e-05
-0.0001428969 -0.00013454532 -5.472911e-05 -0.0001406409 -0.00014419833 -7.0334914e-05 -0.00013963398 -0.0001549592
-0.00012186747 -0.000118787146 -0.00013368887 -8.504821e-05 -0.00012893608 -0.00016806807 -0.00010714954 -8.256458e-05
0.0003005249 0.00066794554 -0.00012347147 0.00030395223 0.00067429466 -0.00023269992 0.00020155433 0.0005611859
-0.00010818577 0.00024050719 0.00060337037 -0.00017567197 0.00023487415 0.00062697113 -0.00033487444 9.811267e-05
0.00049623614 -6.9515234e-05 0.00019972844 0.00048348345 -0.0001565228 0.00018004581 0.00051055854 -0.00034660503
2.9223092e-05 0.0003768359 -0.00022465506 -0.0006518948 -0.00088284665 -0.00027541377 -0.0006827521 -0.00087188795
-0.00018105215 -0.000567337 -0.0007327533 -0.00021586803 -0.0006448511 -0.0008766005 -0.00023307261 -0.000663497
-0.0008788102 -0.00010606269 -0.0005390704 -0.0007445568 -8.6035405e-05 -0.00044232354 -0.0006512786 -5.815033e-05
-0.0004340431 -0.0006504575 7.759386e-05 -0.00032014318 -0.0005306008 -0.00082954986 -2.3798371e-05 0.00071364094
-0.00083160534 -3.257668e-05 0.0006909057 -0.000739674 1.4554387e-05 0.00063692866 -0.0007824613 -3.1730968e-05
0.0006901011 -0.0008569122 -8.588515e-05 0.0006483933 -0.00086043956 -0.00010812339 0.0005455872 -0.00074438646
-0.00012859223 0.0004892454 -0.00088243757 -0.00022953903 0.00040846464 -0.0010034465 -0.00034730285 0.00022749027
-0.00043806722 -0.0003403023 -4.9488935e-05 -0.0004896863 -0.0004393705 -0.00019121358 -0.00050784403 -0.00048050555
-0.00028203888 -0.0005464104 -0.00042533752 -8.497267e-05 -0.00060683046 -0.0004876441 -0.00017099269 -0.0006536027
-0.000530702 -0.00025897907 -0.000515207 -0.00043665795 -9.754123e-05 -0.0005881729 -0.0004724003 -0.00011579679
-0.00068529515 -0.0005304678 -0.00019592892 0.00030446277 -0.00027532756 -0.0008271548 0.00031519498 -0.00026817247
-0.0007698296 0.000296112 -0.00021585273 -0.0006038235 0.000414261 -0.00018364622 -0.00082370173 0.0004225056
00000000: 92ac e539 b66a b239 c793 4f38 625e 003a
00000010: 6b5b e639 e680 4839 e620 053a 8fec fb39
00000020: bfde 9339 063d 0f3a f6ff de39 0134 b238
00000030: bc13 1f3a 82aa ff39 b64c 3339 9756 2b3a
00000040: e41e 0b3a bbc7 8739 f70e 073a 45ef e439
00000050: 0f8f cc38 a12f 1a3a 7cac f739 42d8 f238
00000060: 6ea5 333a 220f 0b3a 7272 4d39 9ba0 9fb9
00000070: 9e59 9039 43d5 583a fa40 a5b9 4099 8c39
00000080: 45ce 493a bd3f 9bb9 2c56 6239 c649 1e3a
00000090: 5e31 d9b9 ba90 4039 99ed 573a f383 ddb9
000000a0: d559 5f39 994c 593a 94d7 e7b9 3654 1a39
000000b0: 7dd7 2e3a 5d07 dab9 7a27 8538 e08b 283a
000000c0: 4f6d feb9 ed95 7638 0378 2d3a 440e 25ba
000000d0: 7e7c b5b8 22ff f339 a046 473a 3196 31b8
000000e0: ce49 48ba 4092 673a b09f 7238 5865 34ba
000000f0: 8203 803a ba29 5a39 62df f0b9 b7cb 543a
00000100: 3fac b437 d0d3 35ba fa63 823a 7c6f 2539
00000110: 4a4e 1fba 5d9c 993a f143 c339 bd59 a9b9
00000120: 7db6 4e3a 757f ef38 8a4b 04ba 6631 813a
00000130: 44bb 8139 cd29 e5b9 2be7 a13a 6908 043a
00000140: a7ac 03b9 f50e ce38 e3c3 bfb9 d101 42ba
00000150: e067 d238 e36f c1b9 ad1d 3cba faa0 b838
00000160: 8899 a6b9 d027 1cba 9978 8239 68b7 62b9
00000170: 4d20 29ba 6105 8339 5f5d 80b9 c1a7 2eba
00000180: 3192 8f39 a850 3eb9 0ea2 0dba 4337 6139
00000190: 566d 35b9 5a1e 0eba ab11 7439 5ac3 57b9
000001a0: 98dd 1bba b685 b639 0b3c b7b8 24d1 ebb9
000001b0: c11f d8b8 b94e a4b8 0ed7 0a37 80f3 18b9
000001c0: 9a54 aeb8 2611 0138 164c 03b9 e164 b2b8
000001d0: 7369 1bb6 e136 08b9 95db 15b9 d290 bbb8
000001e0: 98d6 15b9 bc14 0db9 ef8c 65b8 0179 13b9
000001f0: f233 17b9 c580 93b8 b66a 12b9 8b7c 22b9
00000200: 1a93 ffb8 5d1d f9b8 d52e 0cb9 e95b b2b8
00000210: 0433 07b9 6e3b 30b9 79b5 e0b8 8526 adb8
00000220: c58f 9d39 1119 2f3a 1f78 01b9 c75b 9f39
00000230: 26c3 303a e900 74b9 5458 5339 8c1c 133a
00000240: cbe1 e2b8 a830 7c39 802b 1e3a 9634 38b9
00000250: 8d48 7639 525b 243a 1692 afb9 d7c1 cd38
00000260: d815 023a b5c8 91b8 326e 5139 0d7c fd39
00000270: 4520 24b9 aeca 3c39 01d7 053a 8ab8 b5b9
00000280: 1d24 f537 0f92 c539 6291 6bb9 ebe3 2aba
00000290: d66e 67ba 6965 90b9 b8fa 32ba 698f 64ba
000002a0: d1d8 3db9 57b9 14ba 3e16 40ba a25a 62b9
000002b0: 3a0b 29ba aacb 65ba f464 74b9 88ee 2dba
000002c0: f45f 66ba f96d deb8 6750 0dba 5c2e 43ba
000002d0: e86d b4b8 a9e7 e7b9 91ba 2aba 71e6 73b8
000002e0: 4790 e3b9 7783 2aba e3b9 a238 e4d8 a7b9
000002f0: 0418 0bba 2676 59ba 9da2 c7b7 a213 3b3a
00000300: 1700 5aba f2a2 08b8 e61d 353a afe6 41ba
00000310: 9e2e 7437 8ff7 263a 171e 4dba de16 05b8
00000320: e7e7 343a 67a2 60ba 3d1d b4b8 f0f8 293a
00000330: 1f8f 61ba 4ec0 e2b8 bd05 0f3a ee22 43ba
00000340: b7d6 06b9 b440 003a 6253 67ba 6ab0 70b9
00000350: 3227 d639 1486 83ba 3316 b6b9 748a 6e39
00000360: 63ac e5b9 9a6a b2b9 5792 4fb8 4b5e 00ba
00000370: 4f5b e6b9 8180 48b9 d620 05ba 5dec fbb9
00000380: 9ede 93b9 fb3c 0fba d6ff deb9 5b33 b2b8
00000390: b413 1fba 7caa ffb9 804c 33b9 8956 2bba
000003a0: cf1e 0bba 95c7 87b9 f50e 07ba 3def e4b9
000003b0: 0d8f ccb8 9d2f 1aba 7fac f7b9 eed7 f2b8
000003c0: 61a5 33ba 170f 0bba 4572 4db9 4da0 9f39
000003d0: d759 90b9 6bd5 58ba c140 a539 8099 8cb9
000003e0: 64ce 49ba 7b3f 9b39 8756 62b9 e949 1eba
000003f0: 2c31 d939 2891 40b9 b0ed 57ba be83 dd39

exp_avg_sq f4 [2, 8, 3, 3, 3]
2.3950372e-06 2.3394666e-06 2.4811252e-06 2.341327e-06 2.6481034e-06 3.0225835e-06 2.4241667e-06 3.0029291e-06
3.427203e-06 2.4923527e-06 2.095487e-06 2.0040832e-06 2.2508852e-06 2.1588728e-06 2.3909472e-06 2.2000365e-06
2.4837314e-06 2.8825875e-06 2.6682033e-06 2.0680545e-06 1.7566249e-06 2.3957768e-06 1.9296767e-06 1.9130753e-06
2.2705383e-06 2.1404e-06 2.3547063e-06 5.091847e-06 4.197382e-06 5.3883414e-06 3.8002156e-06 3.8162025e-06
6.1465958e-06 3.5545086e-06 4.652693e-06 7.584411e-06 3.8965063e-06 1.8589346e-06 2.7391638e-06 1.9530098e-06
7.3857075e-07 3.049548e-06 1.5644185e-06 1.7497973e-06 4.822301e-06 5.2036435e-06 2.4818921e-06 2.4011854e-06
3.486901e-06 1.2883074e-06 2.4854824e-06 2.9927742e-06 2.1626786e-06 4.2407028e-06 7.551687e-06 4.2147503e-06
5.951529e-06 5.0934173e-06 3.1302568e-06 6.979056e-06 5.0252747e-06 5.161635e-06 1.0131308e-05 7.795957e-06
3.2256505e-06 3.859027e-06 5.1653637e-06 1.7294807e-06 4.340577e-06 5.0574904e-06 3.8476505e-06 7.685117e-06
1.17355075e-05 7.278991e-06 6.846915e-06 9.578788e-06 5.974213e-06 7.14294e-06 9.094849e-06 7.3534843e-06
9.736016e-06 3.106834e-06 2.317019e-06 2.7870167e-06 2.3022708e-06 2.0490077e-06 3.2310784e-06 2.1710985e-06
2.5790803e-06 4.1516987e-06 2.506641e-06 1.1303674e-06 1.3090424e-06 1.4020811e-06 4.4793703e-07 1.4579547e-06
1.1632593e-06 1.0504615e-06 2.617554e-06 3.2308005e-06 1.5748977e-06 1.2725593e-06 2.2119373e-06 7.629352e-07
1.1692099e-06 1.8291056e-06 1.1637686e-06 2.200767e-06 4.891442e-07 5.219759e-07 4.751883e-07 5.4545393e-07
5.8673163e-07 5.5491677e-07 3.9131373e-07 4.1865354e-07 4.435274e-07 5.397466e-07 5.979513e-07 5.5058774e-07
6.207477e-07 6.927901e-07 6.544334e-07 4.4851998e-07 4.665829e-07 4.6764367e-07 5.002019e-07 5.380209e-07
5.012714e-07 6.0778433e-07 6.720779e-07 6.4649146e-07 4.8001186e-07 4.9187577e-07 4.83882e-07 3.16668e-06
1.8792479e-06 2.0769564e-06 1.8870901e-06 9.399232e-07 1.9537254e-06 1.3364465e-06 1.1459997e-06 2.7372068e-06
3.2294572e-06 1.6144805e-06 1.4401587e-06 1.937405e-06 5.3256804e-07 1.096776e-06 1.3576388e-06 6.951342e-07
1.8854879e-06 4.469029e-06 2.9450061e-06 2.5020179e-06 3.5336072e-06 2.1501062e-06 2.2307868e-06 2.9637097e-06
2.1562191e-06 2.754981e-06 3.3347717e-06 2.6829757e-06 3.780635e-06 2.1966523e-06 2.18893e-06 3.954025e-06
1.9332297e-06 2.5420168e-06 4.5102393e-06 3.3448591e-06 2.1888911e-06 2.79223e-06 2.2037157e-06 1.6856258e-06
2.9332532e-06 2.0432003e-06 2.2141187e-06 3.69122e-06 4.858451e-06 3.6023396e-06 3.6302013e-06 3.9990387e-06
3.2560815e-06 3.7919535e-06 3.7571751e-06 3.5984351e-06 4.3894556e-06 5.8509236e-06 2.462765e-06 3.3391061e-06
4.1078756e-06 2.1251815e-06 4.750225e-06 4.3094656e-06 4.142391e-06 7.656376e-06 6.5188297e-06 1.929047e-06
1.5052311e-06 4.7272933e-06 1.3753381e-06 2.665053e-06 4.9265564e-06 3.5872492e-06 6.0132043e-06 1.08314125e-05
6.435723e-06 4.7474377e-06 9.26405e-06 5.779007e-06 5.499905e-06 8.848785e-06 7.040836e-06 8.02203e-06
2.395038e-06 2.3394675e-06 2.4811252e-06 2.3413272e-06 2.6481036e-06 3.0225822e-06 2.424167e-06 3.002928e-06
3.427203e-06 2.4923531e-06 2.0954865e-06 2.0040836e-06 2.250886e-06 2.1588726e-06 2.3909474e-06 2.2000372e-06
2.4837314e-06 2.8825878e-06 2.6682026e-06 2.068054e-06 1.7566252e-06 2.395776e-06 1.9296774e-06 1.9130762e-06
2.2705372e-06 2.1404007e-06 2.3547063e-06 5.09185e-06 4.197383e-06 5.38834e-06 3.8002213e-06 3.8162043e-06
6.1465958e-06 3.5545127e-06 4.6526948e-06 7.5844127e-06 3.896507e-06 1.8589335e-06 2.7391627e-06 1.9530114e-06
00000000: 6dba 2036 bbff 1c36 6881 2636 b11f 1d36
00000010: 12b6 3136 97d7 4a36 deae 2236 ee85 4936
00000020: e6fe 6536 4b42 2736 31a0 0c36 e37d 0636
00000030: ea0d 1736 27e1 1036 2974 2036 57a4 1336
00000040: 2eae 2636 7a72 4136 620f 3336 e8c8 0a36
00000050: 2cc5 eb35 22c7 2036 987f 0136 6262 0036
00000060: 8d5f 1836 cba3 0f36 8c05 1e36 a2da aa36
00000070: 3dd7 8c36 80cd b436 3507 7f36 ee0c 8036
00000080: db3e ce36 fe89 6e36 541e 9c36 987d fe36
00000090: bcbe 8236 8280 f935 7ad2 3736 7410 0336
000000a0: 3242 4635 d6a6 4c36 03f9 d135 94da ea35
000000b0: 40cf a136 f59a ae36 958e 2636 0d24 2136
000000c0: 8100 6a36 e8e9 ac35 43cc 2636 78d7 4836
000000d0: 8922 1136 5c4b 8e36 7f64 fd36 6e6c 8d36
000000e0: 3fb3 c736 1fe8 aa36 6711 5236 a22d ea36
000000f0: c89e a836 1b32 ad36 a3f9 2937 61cb 0237
00000100: 4178 5836 ca7c 8136 2352 ad36 8120 e835
00000110: 46a5 9136 83b3 a936 111b 8136 54ef 0037
00000120: 9fe3 4437 0e3e f436 8dbe e536 95b4 2037
00000130: 1976 c836 63ad ef36 1496 1837 f3bd f636
00000140: df57 2337 007f 5036 157e 1b36 9508 3b36
00000150: b680 1a36 af81 0936 81d5 5836 30b3 1136
00000160: 4314 2d36 d24e 8b36 c437 2836 21b7 9735
00000170: 5bb2 af35 242f bc35 ff7b f034 f1ae c335
00000180: 4921 9c35 95fd 8c35 3ca9 2f36 bbd0 5836
00000190: 1361 d335 cecc aa35 cb70 1436 82cc 4c35
000001a0: bfed 9c35 977f f535 c932 9c35 e4b0 1336
000001b0: bc4d 0335 e91d 0c35 621d ff34 4f6b 1235
000001c0: e47f 1d35 97f5 1435 c015 d234 4ec3 e034
000001d0: f11d ee34 1be3 1035 e782 2035 1acc 1335
000001e0: 75a1 2635 2cf8 3935 52ac 2f35 1ecc f034
000001f0: aa7e fa34 7510 fb34 9d45 0635 846c 1035
00000200: 1c8f 0635 9f26 2335 d768 3435 8e8a 2d35
00000210: 2ada 0035 7209 0435 1ee4 0135 2683 5436
00000220: 773a fc35 d761 0b36 ec47 fd35 084f 7c35
00000230: bf1c 0336 f45f b335 40d0 9935 dbb0 3736
00000240: a7b9 5836 21b1 d835 7a4b c135 5d04 0236
00000250: ccf5 0e35 f034 9335 1d38 b635 4299 3a35
00000260: df10 fd35 abf4 9536 d2a2 4536 57e8 2736
00000270: e922 6d36 8b4a 1036 a0b4 1536 25e4 4636
00000280: 90b3 1036 37e2 3836 f1ca 5f36 2c0d 3436
00000290: d1b6 7d36 336a 1336 88e5 1236 d1ac 8436
000002a0: a2bc 0136 8497 2a36 a956 9736 3e78 6036
000002b0: dde4 1236 2562 3b36 8ce3 1336 a93d e235
000002c0: e8d8 4436 ea1d 0936 4596 1436 adb6 7736
000002d0: c705 a336 b9bf 7136 629e 7336 7b2f 8636
000002e0: 0e83 5a36 4479 7e36 c723 7c36 a57c 7136
000002f0: 2349 9336 0d53 c436 fb45 2536 6815 6036
00000300: 62d6 8936 579e 0e36 1f64 9f36 079a 9036
00000310: defe 8a36 e273 0037 52bc da36 c674 0136
00000320: 5907 ca35 249f 9e36 4298 b835 43d9 3236
00000330: cc4e a536 79bc 7036 08c5 c936 90b8 3537
00000340: 71f2 d736 2e4c 9f36 cb6c 1b37 4be9 c136
00000350: d38b b836 3e75 1437 5240 ec36 5b96 0637
00000360: 71ba 2036 bfff 1c36 6881 2636 b21f 1d36
00000370: 13b6 3136 91d7 4a36 dfae 2236 e985 4936
00000380: e6fe 6536 4d42 2736 2fa0 0c36 e57d 0636
00000390: ed0d 1736 26e1 1036 2a74 2036 5aa4 1336
000003a0: 2eae 2636 7b72 4136 5f0f 3336 e6c8 0a36
000003b0: 2fc5 eb35 1ec7 2036 9b7f 0136 6662 0036
000003c0: 885f 1836 cea3 0f36 8c05 1e36 a9da aa36
000003d0: 3fd7 8c36 7dcd b436 4e07 7f36 f20c 8036
000003e0: db3e ce36 108a 6e36 581e 9c36 9c7d fe36
000003f0: bebe 8236 7880 f935 75d2 3736 7b10 0336

exp_avg f4 [2]
-0.0018166212 0.0018166221
00000000: b11b eeba b91b ee3a

exp_avg_sq f4 [2]
1.6378794e-05 1.6378795e-05
00000000: 3165 8937 3265 8937
